…
ch_size, shuffle=True, collate_fn=collate_molgraphs)\n```\n\n2. Pre-train a DeepReac model with 10% of training set\n\n```\nloss_fn = nn.MSELoss(reduction='none')\nin_feats_dim = CanonicalAtomFeaturizer().feat_size('h')\nmodel = DeepReac(in_feats_dim, len(data[0][1]), c_num, device = device)\noptimizer = torch.optim.Adam(model.parameters(), lr=args.lr, weight_decay=args.weight_decay)\nstopper = EarlyStopping(mode='lower', patience=args.patience)\nmodel.to(device)\n***\nDeepReac(\n  (gnn): GAT_adj(\n    (gnn_layers): ModuleList(\n      (0): GATLayer(\n        (gat_conv): GATConv(\n          (fc): Linear(in_features=74, out_features=128, bias=False)\n          (feat_drop): Dropout(p=0.0, inplace=False)\n          (attn_drop): Dropout(p=0.0, inplace=False)\n          (leaky_relu): LeakyReLU(negative_slope=0.2)\n          (res_fc): Linear(in_features=74, out_features=128, bias=False)\n        )\n      )\n      (1): GATLayer(\n        (gat_conv): GATConv(\n          (fc): Linear(in_features=128, out_features=128, bias=False)\n          (feat_drop): Dropout(p=0.0, inplace=False)\n          (attn_drop): Dropout(p=0.0, inplace=False)\n          (leaky_relu): LeakyReLU(negative_slope=0.2)\n          (res_fc): Linear(in_features=128, out_features=128, bias=False)\n        )\n      )\n    )\n  )\n  (readout): WeightedSumAndMax(\n    (weight_and_sum): WeightAndSum(\n      (atom_weighting): Sequential(\n        (0): Linear(in_features=32, out_features=1, bias=True)\n        (1): Sigmoid()\n      )\n    )\n  )\n  (gnn_layers): ModuleList(\n    (0): GATLayer(\n      (gat_conv): GATConv(\n        (fc): Linear(in_features=64, out_features=128, bias=False)\n        (feat_drop): Dropout(p=0, inplace=False)\n        (attn_drop): Dropout(p=0, inplace=False)\n        (leaky_relu): LeakyReLU(negative_slope=0.2)\n        (res_fc): Linear(in_features=64, out_features=128, bias=False)\n      )\n    )\n    (1): GATLayer(\n      (gat_conv): GATConv(\n        (fc): Linear(in_features=128, out_features=128, bias=False)\n        (feat_drop): Dropout(p=0, inplace=False)\n        (attn_drop): Dropout(p=0, inplace=False)\n        (leaky_relu): LeakyReLU(negative_slope=0.2)\n        (res_fc): Linear(in_features=128, out_features=128, bias=False)\n      )\n    )\n  )\n  (digits): CapsuleLayer()\n  (predict): Sequential(\n    (0): Dropout(p=0, inplace=False)\n    (1): Linear(in_features=64, out_features=1, bias=True)\n  )\n)\n***\n\nfor epoch in tqdm(range(args.num_epochs)):\n    out_feat_train, index_train, label_train = run_a_train_epoch(epoch, model, train_loader, loss_fn, optimizer, args, device)\n    val_score, out_feat_val, index_val, label_val, predict_val= run_an_eval_epoch(model, val_loader, args, device)\n    early_stop = stopper.step(val_score[0], model)\n 
…
