…
g dataset from /home/vineetb/cryodrgn/cryodrgn/testing/data/hand.mrcs\n2022-09-20 16:30:06     Loaded 100 64x64 images\n2022-09-20 16:30:06     Windowing images with radius 0.85\n2022-09-20 16:30:06     Computing FFT\n2022-09-20 16:30:06     Spawning 16 processes\n2022-09-20 16:30:06     Symmetrizing image data\n2022-09-20 16:30:06     Normalized HT by 0 +/- 94.426513671875\n2022-09-20 16:30:06     WARNING: No translations provided\n2022-09-20 16:30:07     Using circular lattice with radius 32\n2022-09-20 16:30:07     HetOnlyVAE(\n  (encoder): ResidLinearMLP(\n    (main): Sequential(\n      (0): Linear(in_features=3208, out_features=1024, bias=True)\n      (1): ReLU()\n      (2): ResidLinear(\n        (linear): Linear(in_features=1024, out_features=1024, bias=True)\n      )\n      (3): ReLU()\n      (4): ResidLinear(\n        (linear): Linear(in_features=1024, out_features=1024, bias=True)\n      )\n      (5): ReLU()\n      (6): ResidLinear(\n        (linear): Linear(in_features=1024, out_features=1024, bias=True)\n      )\n      (7): ReLU()\n      (8): Linear(in_features=1024, out_features=20, bias=True)\n    )\n  )\n  (decoder): FTPositionalDecoder(\n    (decoder): ResidLinearMLP(\n      (main): Sequential(\n        (0): Linear(in_features=202, out_features=1024, bias=True)\n        (1): ReLU()\n        (2): ResidLinear(\n          (linear): Linear(in_features=1024, out_features=1024, bias=True)\n        )\n        (3): ReLU()\n        (4): ResidLinear(\n          (linear): Linear(in_features=1024, out_features=1024, bias=True)\n        )\n        (5): ReLU()\n        (6): ResidLinear(\n          (linear): Linear(in_features=1024, out_features=1024, bias=True)\n        )\n        (7): ReLU()\n        (8): Linear(in_features=1024, out_features=2, bias=True)\n      )\n    )\n  )\n)\n2022-09-20 16:30:07     9814038 parameters in model\n2022-09-20 16:30:07     6455316 parameters in encoder\n2022-09-20 16:30:07     3358722 parameters in decoder\n2022-09-20 16:30:07     Warning: z dimension is not a multiple of 8 -- AMP training speedup is not optimized\n2022-09-20 16:30:08     # =====> Epoch: 1 Average gen los
…
